…
      x = self.pool(F.relu(self.conv1(x)))\n        x = self.pool(F.relu(self.conv2(x)))\n        x = x.view(-1, 16 * 4 * 4)\n        x = F.relu(self.fc1(x))\n        x = F.relu(self.fc2(x))\n        x = self.fc3(x)\n        return x\n\nFollowing the usual Keras way, we instantiate the model and compile it, providing the loss and the optimizer:\n\nmodel = SimpleModel()\nmodel.compile(loss=torch.nn.CrossEntropyLoss(),\n              optimizer=torch.optim.SGD(model.parameters(), lr=0.001, momentum=0.9),\n              metrics = MetricCollection([Accuracy()]))\n\n\nmodel\n\nSimpleModel(\n  (conv1): Conv2d(1, 6, kernel_size=(5, 5), stride=(1, 1))\n  (pool): MaxPool2d(kernel_size=2, stride=2, padding=0, dilation=1, ceil_mode=False)\n  (conv2): Conv2d(6, 16, kernel_size=(5, 5), stride=(1, 1))\n  (fc1): Linear(in_features=256, out_features=120, bias=True)\n  (fc2): Linear(in_features=120, out_features=84, bias=True)\n  (fc3): Linear(in_features=84, out_features=10, bias=True)\n  (loss_fn): CrossEntropyLoss()\n  (metrics): MetricCollection(\n    (Accuracy): Accuracy()\n  )\n)\n\n\n\nmodel.evaluate(training_loader), model.evaluate(validation_loader)\n\n[W ParallelNative.cpp:229] Warning: Cannot set number of intraop threads after parallel work has started or after set_num_threads call when using native parallel backend (functio
…
(x)))\n        x = x.view(-1, 16 * 4 * 4)\n        x = F.relu(self.fc1(x))\n        x = F.relu(self.fc2(x))\n        x = self.fc3(x)\n        return x\n\nFollowing the usual Keras way, we instantiate the model and compile it, providing the loss and the optimizer. Metrics can be provided as well, and are expected as torchvision.MetricCollection:\n\nmodel = SimpleModel()\nmodel.compile(loss=torch.nn.CrossEntropyLoss(),\n              optimizer=torch.optim.SGD(model.parameters(), lr=0.001, momentum=0.9),\n              metrics = MetricCollection([Accuracy()]))\n\n\nmodel\n\nSimpleModel(\n  (conv1): Conv2d(1, 6, kernel_size=(5, 5), stride=(1, 1))\n  (pool): MaxPool2d(kernel_size=2, stride=2, padding=0, dilation=1, ceil_mode=False)\n  (conv2): Conv2d(6, 16, kernel_size=(5, 5), stride=(1, 1))\n  (fc1): Linear(in_features=256, out_features=120, bias=True)\n  (fc2): Linear(in_features=120, out_features=84, bias=True)\n  (fc3): Linear(in_features=84, out_features=10, bias=True)\n  (loss_fn): CrossEntropyLoss()\n)\n\n\n\nmodel.evaluate(training_loader), model.evaluate(validation_loader)\n\n(2.3070596095879874, 2.307082461261749)\n\n\n\nmodel.fit(trainloader=training_loader, epochs=1, validationloader=validation_loader)\n\n\nmodel.evaluate(training_loader), model.evaluate(validation_loader)\n\n(0.39349932589025605, 0.42693415356237674)"
…
